model/model.pth (torch, 17216 bytes, 4 tensors)

linear1.weight f4 [256, 11]
000000 25 f7 79 ba c5 c9 aa 3e 4e 8b 86 be 90 bf 4f be
       -0.00095354236 0.33357063 -0.26278156 -0.20287919
000010 3c fd a7 3d 76 37 26 3e b7 aa 15 3d 60 bb d5 be
       0.082025975 0.16232094 0.03653976 -0.41744518
000020 45 3e c8 be a0 3d d6 bc d4 cc 40 be 0e 93 ff 3e
       -0.39110008 -0.026152432 -0.18828136 0.4991688
000030 73 8a bf 3b 78 4e c0 3d 4b 45 c0 3c 14 e1 c0 be
       0.005845362 0.09389967 0.023470541 -0.3767172
000040 f2 70 48 bd 22 d8 87 3e dc 56 24 be a6 82 78 3e
       -0.048935838 0.26532084 -0.16048759 0.24268588
000050 06 e2 3b 3e 22 b3 0f bf 6e 80 c2 3e 29 0f 0c bf
       0.1834794 -0.5613271 0.3798861 -0.5471063
000060 eb b4 8f 3d 08 ff a1 be 6b f6 7f 3c 37 59 62 3e
       0.07016929 -0.31639886 0.0156227155 0.22104345
000070 2b b7 fd 3b a7 b2 4c be 72 bd f3 3d ea 12 4f bd
       0.0077427826 -0.19990025 0.11901368 -0.050555147
000080 30 b8 f2 3d 34 45 ad be 31 2b 9c be 20 11 ee 3e
       0.11851537 -0.3384186 -0.30501702 0.4649744
000090 ee db 4f 3e b0 78 2a 3e e7 2f ab be ab 5f aa be
       0.2029874 0.16647601 -0.33434984 -0.33276114
0000a0 92 dd 1a 3d 4e 52 92 3e 22 bb 85 be 34 89 d7 be
       0.037808962 0.28578418 -0.26119334 -0.42096865
0000b0 c8 aa a7 3d e6 51 24 bf 1d 98 a8 bd b1 05 89 3d
       0.08186871 -0.6418747 -0.08232138 0.06690539
0000c0 e1 10 87 be 50 e7 05 be 98 1c 96 3e f4 79 85 bd
       -0.26380065 -0.1307652 0.2931869 -0.06517401
0000d0 42 84 89 3e 00 33 1d bf c1 7a 8a be 8e 5f c6 be
       0.26858717 -0.61405945 -0.2704678 -0.38744777
0000e0 de 3b b9 3e 09 cf 6c 3d 5a 94 d7 be f3 9d 86 be
       0.36178488 0.05781463 -0.4210537 -0.2629238
0000f0 03 62 c1 be 02 87 de bd 6e 6f 02 bd 29 e6 4c 3e
       -0.3777009 -0.108655944 -0.03184455 0.20009674
000100 ea c3 2b 3e 21 10 be 3d 9e a4 b3 3c d1 67 a1 3e
       0.16773954 0.0928042 0.021929082 0.31524518
000110 e6 30 04 3f 53 71 0e be ff cb 90 be b8 72 e7 3d
       0.51637113 -0.13910417 -0.28280637 0.11301178
000120 ae 27 5e ba b6 4c b1 3d 7d 2f 54 3c 67 79 9a be
       -0.00084745407 0.086572096 0.012950775 -0.30170748
000130 52 83 11 3e 1b 58 4e 3e 08 ae 58 3d 09 b4 2a be
       0.14210251 0.20150797 0.052900344 -0.1667024
000140 7e 31 3b bd da 64 1b be 41 75 af bd 33 c7 3c be
       -0.045701496 -0.1517519 -0.08567286 -0.18435363
000150 4a 44 87 be 11 3e 4d be 26 f7 21 3e 85 e9 96 be
       -0.26419288 -0.20043208 0.15816936 -0.29475036
000160 0a 5c ee bd bf 99 24 bf 5c 64 7b 3e f8 cc a5 3e
       -0.11638649 -0.642971 0.24550003 0.3238294
000170 1b cf 28 be ac 57 47 be d1 95 86 3d 62 a5 02 bf
       -0.16485254 -0.19467038 0.06571544 -0.51033604
000180 15 dc 6f 3d 6e d8 8b 3e ec 3a 14 be a3 56 0f 3f
       0.058559496 0.2731356 -0.14475602 0.5599157
000190 5f 85 08 ba cd 61 50 3d 33 1c 3c 3c be 8e d6 3e
       -0.0005207862 0.05087452 0.011481333 0.4190578
0001a0 2d 25 c0 be ff ae 0f 3f 71 32 49 3e 0e 88 10 be
       -0.37528363 0.561264 0.19648148 -0.141144
0001b0 d1 b1 1b 3f 0f 66 be be 5c 2c 47 be 0e fc 8f bd
       0.608182 -0.3718724 -0.19450516 -0.070304975
0001c0 72 f8 83 3e 87 de 7d be 82 28 5c be 29 d0 76 bd
       0.25775486 -0.24791919 -0.21499828 -0.06025711
0001d0 21 34 b1 bd dc d9 f2 bd bc a3 c8 be 3a 74 ae bd
       -0.08652521 -0.1185796 -0.3918742 -0.08518262
0001e0 ce db 28 be 30 d6 e7 3d a2 f2 8e 3e be 55 1e be
       -0.16490099 0.1132015 0.2791949 -0.15462396
0001f0 a3 45 ad 3e ae fa 98 be 41 2f c5 bd 0b 5c 3e bd
       0.3384219 -0.29878753 -0.096281536 -0.046474498
000200 8e 0b 0e be 5c b0 d4 3e cb 27 78 3e c4 88 c1 3e
       -0.13871595 0.41540802 0.2423393 0.37799656
000210 03 38 8c 3e 49 68 b6 be da 6e c0 be 96 06 65 be
       0.27386484 -0.35626438 -0.37584573 -0.22365794
000220 26 f1 0b be 7c f1 35 be 13 fc 4a be 64 ad 04 3e
       -0.1366621 -0.177679 -0.19822721 0.12956768
000230 79 25 25 be 3d f7 91 3d f0 e9 2c be ba f0 18 bd
       -0.16127576 0.07127235 -0.16886115 -0.03733895
000240 06 4b 53 bd 05 70 8d bc 68 57 72 3e df 4f f7 be
       -0.05158522 -0.01726533 0.23666155 -0.48303124
000250 e9 bf 77 bd e2 6b bc be f8 2c 86 be 49 1c 17 bf
       -0.060485754 -0.36801058 -0.26206183 -0.59027535
000260 e8 8c c6 bd 2b 2d e9 3e f6 3b c4 3d 84 dc 09 bf
       -0.096948445 0.45542273 0.09581749 -0.53852105
000270 92 a0 a5 3e 31 8f a0 3e aa fd 69 3e d4 f7 7c 3e
       0.32349068 0.31359246 0.22850671 0.24703914
000280 d5 f9 0c be 52 df 05 bd 07 d0 88 3e 39 a5 6c 3e
       -0.13767178 -0.032683678 0.26721212 0.23109902
000290 1a 3f 44 3e f2 33 6e 3e c0 17 83 3e 52 c2 ab be
       0.19164696 0.23262003 0.25604057 -0.33546692
0002a0 30 0b a4 3c cf f7 45 be 5b 60 fd bd f7 f5 1d 3e
       0.020024866 -0.19332813 -0.12371894 0.1542586
0002b0 d2 be 58 be 58 64 11 3e fa 87 db bd 4e ee 90 bd
       -0.21166542 0.14198434 -0.10719295 -0.07076703
0002c0 0d fc 1a 3c 30 92 01 3f c5 a5 4d be 9f f4 e4 3d
       0.009459508 0.5061369 -0.20082767 0.1117947
0002d0 f1 6c 25 be bc 1b 15 bd ac da 00 3d 5f 96 0b 3e
       -0.16154839 -0.036403403 0.03145854 0.13631581
0002e0 6e dd 88 3e 2c f6 bd 3e b8 a4 81 3e f0 14 b5 3e
       0.26731437 0.37101877 0.25320983 0.35367537
0002f0 39 f8 a0 3d 03 dd f1 3e 96 ca b7 3c ea c1 1b be
       0.07859845 0.4723893 0.022435468 -0.15210691
000300 aa 94 86 be f3 be d0 bd 76 43 b7 3c 20 98 82 3d
       -0.26285297 -0.10192671 0.022371035 0.06376672
000310 29 db 7d 3e c6 02 ce bd 9d 4a f4 3d c1 ed a5 be
       0.24790634 -0.10059123 0.11928294 -0.32407954
000320 69 87 a1 be 56 0a 2f be 89 f4 95 3e 91 e2 2b be
       -0.31548622 -0.17093787 0.29288128 -0.16785647
000330 9b 31 92 3d 6c 55 b6 3d 49 fc c5 be 52 a2 29 3d
       0.07138368 0.08903012 -0.3866904 0.041414566
000340 d3 f0 a1 be 98 4c 39 be 7c 45 90 3d 66 d0 87 3d
       -0.31629047 -0.18095624 0.07044503 0.06631546
000350 b9 a1 3e bd 5d 7c b7 3e 23 a6 f3 be f7 25 b4 3e
       -0.04654095 0.3583707 -0.4758769 0.35185215
000360 4f 50 cc bc 2a 31 e8 be 09 0c a0 3e 4e 48 15 bf
       -0.024940638 -0.4535001 0.31259182 -0.58313453
000370 18 5d 87 be 71 76 4e 3a 96 74 26 3e 00 a2 20 bf
       -0.26438212 0.00078759255 0.16255412 -0.6274719
000380 b0 88 ba bd d4 ee 72 be 01 f1 ac 3e ca 32 dc bd
       -0.09108102 -0.23723918 0.3377762 -0.10751875
000390 42 c5 ef be c5 2b 5b be c4 29 d6 3e c0 f2 10 3f
       -0.46830183 -0.21403416 0.4182874 0.5662041
0003a0 43 0c a2 be 2c b8 ba 3a c4 ac f6 bb 9f 49 a9 3e
       -0.3164998 0.0014245561 -0.0075279195 0.3306398
0003b0 42 2d de bd 0a a6 ca be 17 05 35 3e dd 63 12 be
       -0.10848476 -0.39579803 0.17677723 -0.14295907
0003c0 94 b0 9a 3e cf 4e 17 3f 9f 25 d0 3e 86 6a 00 bf
       0.30212843 0.5910463 0.40653703 -0.5016254
0003d0 48 f3 c2 3c c1 c4 af be bf 45 01 bf 85 53 35 3e
       0.023797646 -0.343298 -0.5049705 0.17707641
0003e0 76 ad c5 3d c6 b7 39 3e 6b 33 66 3e 0c b2 bd be
       0.09652226 0.1813651 0.22480552 -0.370499
0003f0 c9 79 95 be ca 16 3c be d9 1b 43 bd 9c d7 08 3e
       -0.29194477 -0.18368068 -0.04763398 0.13363498

linear1.bias f4 [256]
000000 c3 bf 3e be 0b 68 de 3d 58 c8 db bc e2 fd 7b 3d
       -0.18627839 0.10859688 -0.02682893 0.06152142
000010 85 1b bf 3e 3c 39 2c 3d 45 61 c7 bd 7b 3f 91 be
       0.37325683 0.04204677 -0.097353496 -0.28368744
000020 7f f5 41 be 11 69 55 be 0f 8c 25 be f7 56 44 be
       -0.18941306 -0.20840861 -0.1616671 -0.191738
000030 1f cf bb bd 3c 1d 25 be b0 00 9c be 53 ea 15 be
       -0.091703646 -0.16124433 -0.30469275 -0.14640169
000040 64 61 70 be 3d b7 90 be c4 79 d9 bd 81 79 b6 3d
       -0.23474652 -0.282648 -0.10618928 0.08909894
000050 b5 c0 d1 bc 61 25 59 be 8d dd 1d 3e 56 cc a5 3e
       -0.025604585 -0.21205665 0.15416546 0.32382458
000060 cf f2 9f be 6e 7b 4d 3e d9 da 92 3d b1 ab 07 be
       -0.31239936 0.20066616 0.07170648 -0.13249089
000070 b2 f2 93 be 60 60 ab be ff ff 7f 3c 43 7d 9c be
       -0.288961 -0.33471966 0.015624999 -0.30564317
000080 42 ef f8 3d 57 8e 78 be 01 db 77 3e 62 ef 96 3d
       0.1215501 -0.24273048 0.24204637 0.073698774
000090 ed cf 98 be c2 39 0b 3f 0b eb 18 be 85 fe 9b 3e
       -0.29846135 0.54385006 -0.14933412 0.3046762
0000a0 e0 a7 f7 3c 11 6b 00 bf 6b e4 1e bd c1 8d ab 3d
       0.030231416 -0.5016337 -0.038792055 0.08376647
0000b0 0a 11 b2 be ad e1 c5 be b7 45 3a bd a5 bf 17 3d
       -0.34778625 -0.3864874 -0.04547664 0.037048
0000c0 55 96 8c bc 08 b5 0e be c5 b1 b3 3e a9 b0 ff 3b
       -0.017161528 -0.13936245 0.35096565 0.007803042
0000d0 06 fe 8a be 29 39 74 be bb 20 c7 bc 06 be 23 bd
       -0.2714693 -0.2384993 -0.0243076 -0.039976142
0000e0 94 e8 c5 be 99 7f 75 3e 2e 6c 75 3d 14 06 02 3e
       -0.38654006 0.23974456 0.05991762 0.12697631
0000f0 98 0b 0c 3e 2e c6 98 be 31 41 e4 3e 65 52 a6 3e
       0.13676298 -0.298387 0.44580987 0.32484737
000100 72 78 94 3d 12 c4 72 3e 54 4e d7 3d b6 16 95 be
       0.072495356 0.23707607 0.10512987 -0.2911889
000110 0a f4 37 be e5 63 b6 3d fa e2 0b be da a2 85 3d
       -0.17964187 0.08905772 -0.13660803 0.06525202
000120 3d be 5a be 59 fc 1e bc 7a da 04 bf ec 27 17 3e
       -0.21361633 -0.009703719 -0.5189587 0.14761323
000130 d2 6f a5 bd bd 8f 97 be 45 73 00 be 9c 21 70 3c
       -0.08077969 -0.2960185 -0.12543972 0.014656451
000140 dd 7d 70 be c5 ca 4a bd c5 48 8f be 15 47 03 3d
       -0.23485513 -0.049509782 -0.27985206 0.03205021
000150 e0 04 39 be a2 a1 b8 3d a2 8a 56 3e 29 e1 c4 3e
       -0.18068266 0.09015204 0.20951322 0.38453034
000160 a1 5d 9f bd 49 bc 76 3e 53 75 56 be aa 71 78 3f
       -0.0778153 0.24095263 -0.20943193 0.9704844
000170 9a 92 f4 3e ab a6 66 bd 68 7a 83 be 81 bd c1 bd
       0.47768098 -0.05631129 -0.25679326 -0.09459973
000180 22 1c 3f be 9b 9e 2d bc 65 58 1b 3e ba 7d 9e bd
       -0.18663076 -0.0105968965 0.15170439 -0.07738824
000190 0e 6d 72 be d7 cf 25 be 15 35 fa 3a eb 72 0a 3d
       -0.23674414 -0.16192566 0.0019089306 0.033801
0001a0 54 d8 14 3f dc a2 61 be a9 42 89 be 49 c3 42 3d
       0.5814259 -0.22034782 -0.2680867 0.04754952
0001b0 91 05 38 be 36 3b 33 bd 8e b1 28 3d ac af da be
       -0.17970873 -0.04375764 0.041184954 -0.42712152
0001c0 07 94 6b 3c b4 5a c6 3d d3 6d 23 be 46 2b 34 be
       0.014378554 0.09685269 -0.15959863 -0.17594633
0001d0 57 64 13 be dd 42 f4 be 3b 59 75 3c 6e 84 62 bd
       -0.14393745 -0.47707263 0.0149748875 -0.055302076
0001e0 2d c3 0f be ae e3 59 3d f7 a5 44 be 5c c1 bd 3c
       -0.14039297 0.053195648 -0.19203936 0.02316349
0001f0 c0 19 85 3d 85 cc 8c be 47 0c da bd 82 2f 96 3d
       0.06499052 -0.27499786 -0.10646873 0.0733328
000200 45 79 b7 be 12 0d 2e be cf 82 f8 bd b4 cc 07 be
       -0.3583471 -0.16997173 -0.12134325 -0.13261682
000210 cf a5 90 3d d3 75 f0 3d f3 72 39 bd a9 cc bf be
       0.070628755 0.11741223 -0.04527564 -0.3746083
000220 08 25 7e be 2b 30 fe bd 78 d2 90 3d 16 86 66 be
       -0.24818814 -0.12411531 0.07071394 -0.22512087
000230 04 b6 04 3d 4b 49 d4 bd 5c 06 22 be 85 92 e8 be
       0.032400146 -0.10365542 -0.15822738 -0.45424286
000240 e8 e9 89 3c 08 62 ff be 9c f6 da be 31 60 1f be
       0.016835168 -0.4987948 -0.42766273 -0.15564038
000250 c0 4f 43 3e 2c 72 0e bc 9d 44 27 be 60 3c 7a 3b
       0.19073391 -0.008694213 -0.16334768 0.003818296
000260 cd 25 78 3e d3 22 a8 bb 72 d2 27 be bc 78 86 be
       0.2423317 -0.0051311045 -0.16388872 -0.26263988
000270 0e 4a ae be b5 13 0a be 70 ec 92 be 3b d0 23 be
       -0.34040874 -0.1348408 -0.28696012 -0.15997402
000280 3a 1f 87 be 97 01 86 bc 17 c4 40 be 7d bb 85 be
       -0.2639101 -0.01635818 -0.18824802 -0.26119605
000290 52 3d b8 bb 2b dc 8f be b3 6b 50 be 88 54 08 be
       -0.0056225443 -0.28097662 -0.20353584 -0.13313496
0002a0 21 d8 0f 3f 8f 67 1e 3d c5 c3 5e be c3 ff 31 3e
       0.5618916 0.03867298 -0.21754368 0.17382722
0002b0 d6 3e 82 be fb fe ac bd 29 08 88 be 1c d7 99 be
       -0.25438565 -0.08447071 -0.26568726 -0.30046928
0002c0 89 fa 86 3e fe 52 f2 bc 37 13 8d 3e 6b 3d 85 bd
       0.26363018 -0.02958059 0.27553722 -0.06505855
0002d0 c8 e9 86 be f9 7e 34 bd f0 dd 61 be 08 39 ef 3b
       -0.26350236 -0.044066403 -0.22057319 0.0073005
0002e0 bd f5 aa be ef c7 4c 3d 09 cc a3 be 30 71 e9 bd
       -0.33390608 0.04999536 -0.31991604 -0.11398542
0002f0 c9 2d 2d be 51 5e 72 bd 8f 6d d5 bd 8f ef b9 3c
       -0.16911997 -0.05917198 -0.10421287 0.022697238
000300 15 a9 fb bc 0c 5d b0 be 0b f5 dd be 82 c9 04 be
       -0.030720273 -0.3444599 -0.43351015 -0.12967494
000310 5c 3f ff bd 04 d0 bf 3c 46 0d ed be 87 92 42 be
       -0.12463257 0.02341462 -0.4629919 -0.19001208
000320 12 46 b3 3c 98 f9 5c bd 7e 78 6e be eb 69 68 be
       0.021883998 -0.05394897 -0.23288152 -0.22696654
000330 a3 66 81 be 5f eb 37 bd c5 5f 1a 3e 6d 61 82 be
       -0.25273618 -0.0449022 0.15075596 -0.25464955
000340 0f 01 96 be 1d 2e 5b bd 73 5d 80 3e 00 2a e7 3e
       -0.29297683 -0.053510774 0.25071296 0.4514923
000350 b1 3e 77 be a0 1a 83 be 94 26 13 be 84 e0 61 be
       -0.24145009 -0.2560625 -0.14370185 -0.22058302
000360 8c e3 6a be fe 71 e2 bb 55 76 52 be 04 d8 35 be
       -0.22938365 -0.0069105616 -0.20552953 -0.17758185
000370 bd 48 19 be 19 07 e8 bd de e6 f5 bc cd 93 9d be
       -0.14969154 -0.11329479 -0.030017313 -0.30776826
000380 c5 dd 47 be 6d b7 d5 3c 71 fe bb 3e d6 9f 9f be
       -0.19518192 0.02608844 0.3671756 -0.31176633
000390 3b 3a 2e be 41 c3 ae be f9 52 ce be b3 b1 1f bc
       -0.170144 -0.34133342 -0.40297678 -0.009746957
0003a0 3f 6f 48 3e f2 92 f8 bd 71 13 28 be a1 d4 90 bd
       0.19573687 -0.121374026 -0.16413666 -0.07071806
0003b0 76 54 92 be da 5f e3 bd b1 de 35 bd fe a6 aa 3e
       -0.28580064 -0.111022666 -0.04440183 0.3333053
0003c0 d8 9c 4b 3e 67 cd 51 3d a6 00 48 be 0e 68 ab bc
       0.1988405 0.051221278 -0.19531497 -0.02092364
0003d0 b2 b6 55 be ad ff 10 3e 54 42 a6 be 35 7b 71 be
       -0.20870474 0.14160033 -0.3247248 -0.23582156
0003e0 76 2a d4 3c 60 f2 97 be 80 a0 7d be e7 54 f3 3c
       0.025899153 -0.29677105 -0.24768257 0.02970357
0003f0 c6 e5 9d 3e 87 dd 83 3c ce af 03 be 8f 45 02 3f
       0.30839366 0.016096843 -0.12860033 0.5088739

linear2.weight f4 [3, 256]
000000 e2 3f b4 ba 18 b2 77 be f3 27 ff 3c bb c7 43 3e
       -0.0013751949 -0.24189031 0.031146979 0.1911916
000010 c0 d9 2a 3e 08 a1 fc 3b 68 9b e6 3b ca 76 84 bb
       0.16684628 0.007709626 0.007037569 -0.004042481
000020 22 f7 fb bc 73 d4 0b bf af 54 94 3c b7 1a 8d be
       -0.03075749 -0.54621047 0.018106787 -0.27559444
000030 70 db 67 bc 18 e3 e9 be c8 e1 ba 3a 95 11 8c 3d
       -0.014151439 -0.4568107 0.0014257962 0.06839291
000040 ab c1 95 bd d8 3b 8a bd 06 9b 25 be f2 71 e3 be
       -0.0731233 -0.067496955 -0.16172418 -0.4442287
000050 e8 68 b6 3e 59 83 0f bf ec 31 a9 bd 0e 7a b9 3e
       0.35626912 -0.56059796 -0.08261475 0.36225933
000060 dc 11 02 3c ac c4 67 3e 59 db 5f be d1 80 d7 be
       0.007938828 0.22633618 -0.21861018 -0.42090467
000070 ec 26 e5 bc 1a 43 21 3c 89 02 6e 3e 2a c8 00 be
       -0.027972661 0.009842658 0.23243155 -0.12576357
000080 94 d0 11 bf 28 e0 b6 3c 2c 03 a3 3d 17 56 0e 3e
       -0.5695889 0.022323683 0.07959589 0.13900028
000090 98 27 a4 bc 9c ce a7 3d 89 8f c4 be 37 da df 3e
       -0.020038411 0.081937045 -0.3839076 0.43721172
0000a0 11 b8 d2 3e aa 17 47 be 78 16 36 bd 75 6a 20 bf
       0.41156057 -0.19442621 -0.04445502 -0.6266244
0000b0 14 91 37 bd 38 91 87 bb b9 a9 e4 3d 64 c0 95 3e
       -0.04481609 -0.0041371845 0.111651845 0.29248345
0000c0 40 61 d9 3d 2e e7 f5 bd 1b c5 98 3e 05 62 86 3d
       0.10614252 -0.12006985 0.2983788 0.065616645
0000d0 b5 4a e8 3c 3f 54 cb bd 4b e0 ed 3c 21 b3 46 3d
       0.028355936 -0.09928178 0.029037615 0.048510674
0000e0 07 4a 0d be 67 4d bc 3e 9f 0a 8f bd b2 ed 22 3e
       -0.1379777 0.36777803 -0.06984448 0.15910986
0000f0 5f 0c 28 3e 8f 97 31 3d c4 d1 58 3e 9b f2 18 3e
       0.16410969 0.04335743 0.21173769 0.14936297
000100 13 7b 80 be 1d 72 e2 3e 66 62 cb 3e 22 87 6a bc
       -0.25093898 0.44227687 0.3972351 -0.014314445
000110 79 7f 3a be a2 25 09 3f 09 c6 c3 3e ed d8 0b 3f
       -0.1821269 0.5357305 0.38237026 0.5462788
000120 76 47 bc be 9c 1f b1 be 23 46 82 be 8a 2a 62 3d
       -0.3677327 -0.3459443 -0.25444135 0.05521635
000130 87 bc e4 be 19 3d d0 3e 26 4b 6f bd 5c d3 28 3e
       -0.44675085 0.40671614 -0.058421277 0.16486877
000140 05 a6 82 be 75 9c f5 bb d3 95 8a bd c8 fc 89 bd
       -0.25517288 -0.007495458 -0.06766858 -0.06737667
000150 68 43 b7 3e 51 fe e3 be ff c5 3d 3d e2 a7 9f 3e
       0.35793614 -0.44529966 0.046331402 0.31182772
000160 85 70 76 be 74 80 a8 3e 7a d1 03 be 60 44 86 3e
       -0.2406636 0.32910502 -0.12872878 0.2622404
000170 9b 87 97 3e d2 cc cd 3d 62 5c a5 bc 02 b6 cb be
       0.29595646 0.10048832 -0.020185653 -0.39787298
000180 fc c1 24 bf d8 66 7d be af a5 81 be 6c 28 30 be
       -0.64358497 -0.24746263 -0.2532172 -0.1720292
000190 ec 65 06 bd 74 1c ef 3c 97 de 07 be 36 6e 64 3e
       -0.032812044 0.029188372 -0.13268505 0.22307667
0001a0 9f 51 5b 3e a0 be ab 3e 97 70 0c be 37 c8 74 3c
       0.21417855 0.33543873 -0.13714825 0.014940313
0001b0 1b d1 9c 3e 3e 23 0a 3f 82 c5 cb 3e cb a9 98 bd
       0.30628285 0.53960025 0.39799124 -0.074542604
0001c0 15 6a 02 3f cb 2a 37 3c ca 9b 29 3d 49 10 54 3d
       0.5094312 0.011179636 0.041408338 0.051773343
0001d0 6b 8f 41 bc e5 2d 3e be 86 34 b2 3e 3b 43 96 b8
       -0.011813979 -0.18572195 0.34805697 -7.16508e-05
0001e0 cb f1 12 bf a6 eb e1 3e 3f 4d 5f be f0 31 eb 3e
       -0.57400197 0.44125098 -0.21806811 0.45936537
0001f0 26 e9 54 3e 06 6b 16 3d 14 8c e1 be ac 2a 9f 3e
       0.20792064 0.03672316 -0.44052184 0.31087244
000200 ee e4 16 bd 7d 0a 12 be bc b0 b6 3e a5 f2 02 be
       -0.036839418 -0.14261813 0.35681713 -0.12787874
000210 b0 ee c1 3e fb dd d0 3e c1 3b db 3d 37 e7 87 3b
       0.37877417 0.40794358 0.107047565 0.004147436
000220 1f de e3 3e 74 da f7 be ea 84 82 3e c3 03 37 3d
       0.44505402 -0.48408854 0.2549203 0.04468132
000230 bb a4 90 3d 5b b5 c4 3c 18 69 25 3e 1c 06 42 3c
       0.0706267 0.024012258 0.16153371 0.011842277
000240 13 a1 e6 3d 17 dc 93 3c 95 75 e3 be 78 67 3d be
       0.11261191 0.018049283 -0.44425645 -0.18496501
000250 e0 1a a2 3d 8d 51 c8 3e e0 c8 d4 3c 00 69 9b be
       0.07915282 0.39124718 0.02597469 -0.30353546
000260 4c 5f 4b 3c 9b 40 c8 be 26 6c 56 bd 12 2c a6 3e
       0.012412857 -0.3911179 -0.052349232 0.32455498
000270 e9 d9 24 be e4 e8 08 3d 48 1a 59 be 5b a8 ad bd
       -0.16098751 0.033425227 -0.21201432 -0.08479377
000280 ff 8a 7a be 6d bf b9 bd 7a 55 af bd 73 08 f5 bd
       -0.24467085 -0.09069715 -0.08561225 -0.11964502
000290 34 51 8d be 3f f6 cf bd cb 27 00 3f 10 77 80 bd
       -0.27601016 -0.101543896 0.5006072 -0.06272709
0002a0 84 71 17 3e fe 72 c3 3e 69 42 30 be 5e 35 38 3d
       0.14789397 0.3817367 -0.17212833 0.04497277
0002b0 80 cc 79 bc f1 f1 52 be dc d8 1f bd 96 55 b4 bc
       -0.0152465105 -0.20600106 -0.039025173 -0.022013467
0002c0 23 33 1b 3f c1 84 05 3b a4 fb 92 3e 17 1f 5e 3e
       0.60624903 0.0020373317 0.28707612 0.21691547
0002d0 27 60 30 bc 26 86 88 be c0 c3 14 bf d8 23 b5 3e
       -0.010765112 -0.26664847 -0.5811119 0.3537891
0002e0 18 06 c9 bd 80 0f b5 3d 8e 69 a2 bd fb cb 09 be
       -0.098156154 0.08840847 -0.07930289 -0.13456719
0002f0 e8 98 80 bb ca 06 29 be 59 02 f9 bc 3e f7 bc be
       -0.003924478 -0.16506496 -0.030396627 -0.3690738
000300 f3 5c b1 be de d8 7d bd f6 00 b5 be b1 af 67 be
       -0.34641227 -0.0619744 -0.35352296 -0.22625615
000310 16 45 fd 3e 03 3b 27 3c 87 1e 2d be b8 95 25 bd
       0.4946677 0.010206941 -0.16906177 -0.040425986
000320 23 59 97 bd da a2 16 bd b4 f7 9e bd ce 3f ec bd
       -0.07390048 -0.0367764 -0.07762089 -0.11535607
000330 25 16 ae be 6c 12 66 3e 25 4b 05 bc 4c 2f 59 3e
       -0.3400127 0.22467965 -0.008135592 0.21209449
000340 48 ea 4f be 1e 10 39 be 37 21 6a 3e 4b 45 77 3e
       -0.20304215 -0.18072554 0.22864233 0.24147527
000350 2f 67 b4 3d 7a 35 2d 3e 7a 58 b8 be e0 73 50 bd
       0.08808743 0.16914931 -0.36005002 -0.050891757
000360 2f 36 07 bd 74 8c c6 be 58 c7 3b be 32 b5 89 bd
       -0.033010658 -0.38779032 -0.18337762 -0.067240134
000370 79 b4 c8 bc 58 1d 43 3d 66 19 80 3d 7f 91 63 3c
       -0.024500119 0.047635406 0.06254844 0.013889669
000380 dd e2 c6 bd 04 e3 ee 3d ca 5c be 3e a0 38 bf 3c
       -0.097112395 0.116643935 0.37180167 0.02334243
000390 78 68 c9 bc ba 09 38 be 5a 7e 41 be c0 89 2f bf
       -0.024585947 -0.1797246 -0.18895856 -0.68569565
0003a0 4a 0f c3 3d 43 2f 56 3a a6 b9 16 3e df ac 08 bc
       0.095244005 0.00081704947 0.14719257 -0.008341997
0003b0 20 cb 1a bf 9d ac ec bd be 27 10 bf a4 5f 6c 3e
       -0.60466194 -0.11556361 -0.5631064 0.23083359
0003c0 eb 2b 1f 3d 70 51 dd be c7 d3 7a bc a7 ec af be
       0.038860243 -0.43226194 -0.015309281 -0.3436024
0003d0 c4 4e 15 bd e5 b0 ec 3e 2f c1 70 be cd 5c 1c be
       -0.03645207 0.4622871 -0.23511194 -0.15269776
0003e0 e0 04 19 3e 4b f9 4f be c0 4f 63 3c 4a 86 c5 be
       0.14943266 -0.20309941 0.013873994 -0.38579017
0003f0 64 d3 9f 3e ad d4 6b 3d 57 db d3 bd 32 42 64 3e
       0.31215966 0.05757587 -0.1034457 0.22290877

linear2.bias f4 [3]
000000 3d 83 94 3e 90 91 06 bd 95 bd 6f 3d
       0.29006377 -0.032853663 0.05853041
