model/model.pth (torch, 17216 bytes, 4 tensors)

linear1.weight f4 [256, 11]
00000000: 6821 2c3d ee9c f73b 65dc a53d 06a0 2c3e
00000010: c937 66be 9f3d 98be d59e de3d 5de0 b63e
00000020: 2fa4 7b3e 9406 043e 4ed4 d23d af81 3bbe
00000030: 051d d33e bdc9 e2bd 9ec8 a0bc d053 4a3d
00000040: bb05 66be e93b 23be c98f 0f3e ad12 973d
00000050: b735 ec3d 6f8f d5bd 37bb 0d3f 63cc d73e
00000060: a396 c13d e33d 4abe e8f8 5f3d ed19 3e3e
00000070: 486b 44bd f827 c83e b6d8 6a3e c76c 9d3e
00000080: 9f3c 26be 8b75 bd3e 4abc c23e 17f6 86be
00000090: 3c25 3bbe ab26 15be 55ea 853d 4cf8 08bd
000000a0: 9335 303e d630 153e e995 683d 3515 be3d
000000b0: 992d a83e fc6c eb3d dbbf 9fbe f774 1ebe
000000c0: 2492 4f3e 2200 9ebe f31a 403d 4027 93be
000000d0: d4c7 73be 3085 e03d 078d 23be e4cb de3d
000000e0: a74a 963e 019e 043a 49d8 c8bb ef1b 513e
000000f0: ed1a 40be 5f73 a6bd c8fa 03bd 816c 47be
00000100: 6f36 2bbe 5391 9cbe dfb7 de3e 8b8e f83e
00000110: f5f7 f53e 9d45 1fbe f494 793e b332 4cbe
00000120: 342d 823e f51d 8c3d 5f65 7e3e 63da 86ba
00000130: 28ee 133c 7f86 0e3e c6fc a6be 96cc a2bd
00000140: 7bb9 70bd 50de 3d3e 4c9b 323d c09b 83be
00000150: f384 d4be f725 093e 42a4 f0bc 7e7f 173e
00000160: 03ff c33e c4bd 113f a3d7 75be 8169 7abe
00000170: 2f89 793e 0789 00be 796b 8d3e 5f70 eabd
00000180: b6df 323e 7ca4 133e 87e1 f2bd 41b6 17be
00000190: 22c1 45bb 5608 153f 2dbd 2fbe a1b6 ad3d
000001a0: 62b5 0e3e 55dd 683e 99d6 c13d ed8d 10be
000001b0: 4649 a83d 8f3b 92be 79ed 40be d9c7 c33d
000001c0: b293 833e fa9a 0cbe 7e75 adbe 0318 cdbd
000001d0: bd62 36bd 8f37 42be 7cf9 22be 815a 28be
000001e0: 14b1 803e b027 143f 10b1 a1be 3ce2 153e
000001f0: 59d2 863e b1c8 853d 1de7 203e f601 2a3e
00000200: 28cd 513b c228 513e 5067 f7bd c67c 21bd
00000210: 22b8 6abe 12fb 0a3f f56a a4bd 398d 3abe
00000220: 854e 293c 01d2 b4bc 0d80 af3d f109 3fbe
00000230: 970d 1fbd 2b94 3fbd 9600 363e 580c 88be
00000240: 651d 0f3f 1fb7 823e da70 a2bd 76c2 7e3e
00000250: 14b2 17be 6f4d 313e 9fcb 373d 9e54 b0bd
00000260: 254e b3bd fde6 0b3e 6c43 733d 749b 41be
00000270: 976c 69be 20ad 05be f70d fb3d e464 33be
00000280: 31af 483d 5cf2 bbbd f26f 19be 288b ad3c
00000290: 2ab8 70be 25f8 cf3e 82d4 e9be 5502 e63e
000002a0: 2232 b33d e541 27be 5832 203e 68b6 c3bc
000002b0: 0543 0dbe e12e 8ebd 8510 563e 2a17 133e
000002c0: 655b bf3d 6a47 bb3e dc95 123e a5fd 6f3e
000002d0: 9780 14be 845b 033e 1bce 233e a7c6 78be
000002e0: 67f9 a2be 3457 b43d 349b 213d 8075 3ebe
000002f0: f793 5ebe 5935 05be cf02 1e3c a45a 30be
00000300: d9aa 69be e572 25be a596 5cbe 8ac5 45bd
00000310: 4c2f 1fbe 2af3 683e 5617 433d d9f2 aa3e
00000320: 81cf 733e afe4 34bd bc00 cdbd 1ba7 903d
00000330: ef4d c8bd a5c1 823d 67db 5abe 8d1b 613e
00000340: f1e4 60be ee43 be3d a15e 2abe 0cd1 043f
00000350: 73ce b43e 19f4 373d a605 e8bc 390c 813e
00000360: 4f81 f23d b311 08be da97 023e fe33 fabd
00000370: 83d1 903d a772 bb3d 343c 923e c3a0 903e
00000380: ae56 d63a f462 1c3e 4b07 223e 1665 1c3d
00000390: bba9 30bd 8eb2 3c3c eee1 c43b 5a29 f83c
000003a0: 43de e03e eab0 073f c775 14be fb25 653e
000003b0: 64bb adbd a7e2 603d 0fa9 a6bc 169a 3cbd
000003c0: 0a1b 88bd 0c0f cebd d4c1 0f3f 47da 023f
000003d0: 9569 b0be 756e 9e3d 87cb fd3d dc47 44bd
000003e0: 68eb 1c3d ce6e d23d 8b26 1b3e 09ad 9f3c
000003f0: 9f48 553e dac9 ecbd 8f68 e63e 3796 043f
0.042024046 0.0075565493 0.080986775 0.16857919 -0.22482218 -0.29734513 0.108701386 0.3571805
0.2457435 0.12893134 0.102944 -0.18311189 0.41233078 -0.11073635 -0.019626912 0.049396336
-0.22463124 -0.15940823 0.14019693 0.07376609 0.11533683 -0.104277484 0.5536379 0.42148122
0.0945256 -0.1975017 0.054680735 0.18564577 -0.047953874 0.39092994 0.22934231 0.30747053
-0.16234063 0.3700374 0.38034278 -0.26359627 -0.18275923 -0.14565532 0.06538836 -0.03343992
0.17207937 0.1456941 0.05678359 0.09281389 0.32847288 0.114953965 -0.31201062 -0.15474306
0.20270592 -0.30859476 0.0469007 -0.28740883 -0.23806697 0.109629035 -0.15971766 0.10878733
0.2935383 0.0005058945 -0.006129299 0.20420812 -0.18760271 -0.08127474 -0.032221586 -0.19474985
-0.16719984 -0.30579624 0.43499658 0.48546252 0.4804074 -0.15553899 0.24373227 -0.19941215
0.25425112 0.06841651 0.24843358 -0.0010288473 0.009028949 0.13918494 -0.32614726 -0.07949178
-0.058770638 0.18541837 0.043605134 -0.25704765 -0.41507682 0.13393389 -0.0293752 0.14794728
0.38280496 0.56930184 -0.2400804 -0.24454309 0.24368738 -0.12552272 0.27621058 -0.11447214
0.17468151 0.14418215 -0.11859422 -0.14815618 -0.003017493 0.58215845 -0.17162009 0.08482099
0.1393638 0.22740681 0.094647594 -0.1411664 0.08217101 -0.28561065 -0.18840589 0.09559602
0.2569862 -0.13730994 -0.33878702 -0.100143455 -0.044527758 -0.18966506 -0.15915483 -0.16440775
0.251351 0.5787306 -0.315804 0.14637083 0.26332358 0.065324195 0.15713163 0.1660231
0.0032013152 0.20425704 -0.12080252 -0.039425634 -0.22921804 0.5428935 -0.08028213 -0.18217935
0.010333662 -0.022072794 0.085693456 -0.18656136 -0.03883132 -0.046772163 0.17773661 -0.26571918
0.5590423 0.25530335 -0.07931681 0.24878868 -0.14814025 0.17314695 0.044871923 -0.086098894
-0.08755139 0.13662334 0.05939047 -0.18906957 -0.2279533 -0.13054323 0.12258523 -0.17518955
0.0489952 -0.09177086 -0.1498411 0.021184519 -0.23507753 0.40619007 -0.45669943 0.44923654
0.087497965 -0.1633373 0.15644205 -0.023890689 -0.13795097 -0.06942535 0.20904739 0.14364305
0.09343604 0.36577922 0.1431498 0.23436601 -0.14502178 0.12827879 0.15996592 -0.2429453
-0.31830904 0.08805695 0.039454654 -0.1859951 -0.21736132 -0.13008632 0.009644224 -0.17222077
-0.2281908 -0.1615711 -0.21541841 -0.04828409 -0.15545386 0.2274901 0.047629677 0.33388403
0.23809625 -0.044163402 -0.10009906 0.07063123 -0.0978049 0.06384591 -0.21372758 0.21983166
-0.21962334 0.092903 -0.1663766 0.5188148 0.35313758 0.044910524 -0.028323006 0.25204638
0.1184107 -0.13288002 0.1275324 -0.12216948 0.07071211 0.091527276 0.28561556 0.2824765
0.0016352737 0.15272123 0.15823095 0.03818234 -0.043130618 0.01151718 0.006008378 0.030293155
0.43919572 0.53004324 -0.14498053 0.2237777 -0.084830076 0.054903653 -0.020344285 -0.046045385
-0.06645782 -0.10061464 0.56155133 0.51114315 -0.34455553 0.07735912 0.123923354 -0.047920093
0.03831044 0.102750406 0.15151422 0.01949169 0.20828484 -0.11561938 0.45001647 0.5179171

linear1.bias f4 [256]
00000000: fed6 543e ce51 313e 9fcc a93d 837d bfbd
00000010: 3abf 243e dcbc 7ebe 5fe8 483e 85fc 09be
00000020: e648 dcbd e7ae 613e f2f4 263e d475 a0bd
00000030: a3ba 483e a6d3 d73d 95b6 68be 362c 543e
00000040: 7da8 193e db65 103c 9a6a c2be 64f4 4ebe
00000050: e1b4 00be 4712 f13d 9128 df3c a931 893e
00000060: 0510 583d 561a 2fbe 902f 88bd 5644 26be
00000070: 160e 173d 9663 d93d c63a 16be e641 29be
00000080: b06f d4bd 6a07 0abe e96c 5d3e 69cc 50bd
00000090: 5909 3f3e 2c5d 133e afd0 6cbe 89f3 e63e
000000a0: e32b 85be af02 96be 3af3 db3a 1deb b73d
000000b0: a01c d33d 1d26 93be 1147 48be 7d78 cebd
000000c0: 1bd6 47be 57ad e33c df9a 663e 5ab1 3e3d
000000d0: 6cb7 1c3e 757d 88bc a8cd 1e3b 3c95 3abc
000000e0: d1c6 87bd e05a c13c b284 6cbe 5a63 53bb
000000f0: 6775 e9bd 6fbb af3d b1ae 953c 3657 5cbe
00000100: 4bb5 d23c 559b c03d b989 af3d f500 893e
00000110: ffe7 3d3d caf4 da3d bc56 40bd 38a4 04be
00000120: fe82 6f3d 2607 b63d ffbb f93d 7180 b2bd
00000130: 3a78 0c3e 4c15 87bd c8b0 813d f22f 833e
00000140: fd44 4dbe c493 52be 6840 6a3d ea12 9abc
00000150: 2838 ad3d 42aa fabd b453 b3bd 73f4 83be
00000160: c34a 993e 7107 ab3e e2aa 883d 92e9 2abd
00000170: fcde 7fbe 9de4 3b3e 6d4e 813e f054 5fbd
00000180: 713e bebc e690 763e 2ec4 bb3d d264 01be
00000190: 8485 413e 235a 4ebe 361d 3e3c 8f99 193e
000001a0: 4356 503e 99a8 bf3d b69d f5bd 649c 3bbd
000001b0: 0f23 3fbe 8f06 b13d 19b2 993e fc03 213e
000001c0: 6220 7d3d 8e3e 31be d61f b0be 9299 7dbe
000001d0: 31cd 75be 6a7c 82bd 75ab 3f3e 62db 60be
000001e0: a743 e3bd 1b7c e7bd 1fe8 63be 5b09 d03d
000001f0: aba7 dbbd 705b 0c3e 4d78 3cbe 7a73 36be
00000200: 038e f3bd 04fd 313e dea3 1b3d c4e2 c7bd
00000210: 8a77 e63d 43bf 783e 6f44 0fbe 468e 7d3d
00000220: 7d10 863e 4de4 3d3e a97c 3cbe 1911 a43d
00000230: aebf 6f3e 09a6 4fbe 6453 323e 4f2b 673e
00000240: 25e6 c0bd 9796 253e 68c9 cc3d fffe eebd
00000250: 5e1b ff3d 9a2e f83d 1b4b 8abe ae34 8ebd
00000260: 62d7 423d b617 17be aaee e8bd 6a9f 12bd
00000270: d48b 2b3e 74cd 5fbe 07cb 41bd 4feb f7bc
00000280: 63b4 d63d 8c50 b93d d5e9 09be 8594 1a3e
00000290: af4b 87bd b29f 8bbe 352a 383d 803c 793e
000002a0: fef8 ff3d 5bde 50be 9da2 263e 3952 26be
000002b0: d78e 183c cdfe e73d b006 60be d361 cdbc
000002c0: 35b8 b83b d046 50bd 0988 0abe b990 623e
000002d0: 49f1 b53d ae43 e03d 648f 0a3e 7101 c53d
000002e0: e04f 8abe db2a dabd 2938 36be 225b 273e
000002f0: 01a4 3e3e e271 1d3e 146c 59be 611d 353e
00000300: 94b7 b1be d519 7dbe 0b61 963d c18a 36be
00000310: 4a72 663e 84c8 17bd e9a2 803d 2b26 833e
00000320: cacd b5be 745f e43c 6cdd e43d cf5d a5bd
00000330: 7c4f c83d c901 e43d 40b9 a4be 308c ad3d
00000340: a310 8a3e ec2c b7be bf5c 35be 2601 1abe
00000350: 3f59 e63d 8bb1 7a3d 0b52 db3d 057f 833e
00000360: 9149 ddbc e999 f7bc 4c9a 3abe 708e 8fbd
00000370: d387 6b3e 5e36 d23d 6703 a7bc fbc0 5e3e
00000380: 7af2 1ebe f5f0 1e3e 0cdb 09be d4cb b6bb
00000390: 5d2a a6be 8f60 01be a083 823d 90f6 063e
000003a0: 9577 eebc 89bf 683e b9e6 9ebe d9e5 8f3b
000003b0: 70b2 593e 42ea 233e 9e79 25bc 2c88 04be
000003c0: 6b49 59be c85c d53d 70c9 abbd d416 50bd
000003d0: bfb6 d03d a045 583c 0579 0fbe 7b35 9f3e
000003e0: b86c 10be 022e 77bc 389b 1bbe bbc9 7e3e
000003f0: 9465 203e 1ac8 99be c043 76bd 04b0 393c
0.20785138 0.17316362 0.082909815 -0.09350111 0.16088572 -0.24876732 0.19619893 -0.13475235
-0.10756092 0.22039376 0.16304377 -0.07834974 0.19602446 0.105384156 -0.227259 0.2071999
0.1500568 0.008813347 -0.37971956 -0.20210415 -0.12569 0.11771064 0.027241023 0.267957
0.052749652 -0.1709989 -0.06649697 -0.16237006 0.036878668 0.10614698 -0.14670858 -0.16529045
-0.10372865 -0.1347939 0.21623577 -0.05097619 0.1865591 0.14391011 -0.23126481 0.45107678
-0.26010045 -0.29298922 0.0016780861 0.08980391 0.10308194 -0.28740016 -0.1955836 -0.10081575
-0.19515269 0.027792616 0.22520016 0.046555854 0.15304345 -0.016661385 0.0024231467 -0.011388119
-0.06629718 0.023602903 -0.23097494 -0.0032255263 -0.11399346 0.08580672 0.018271776 -0.21517643
0.025721213 0.09404627 0.085711904 0.26758543 0.046363827 0.10691221 -0.046957716 -0.1295327
0.058474533 0.08888082 0.121940605 -0.087159045 0.13717738 -0.06595859 0.063325465 0.25622517
-0.20045848 -0.2056418 0.05719033 -0.018807847 0.084579766 -0.12239505 -0.087561995 -0.25772437
0.2993985 0.33404115 0.06673218 -0.041726656 -0.24987406 0.18348928 0.25255147 -0.054524362
-0.023223134 0.24078712 0.09168278 -0.12636116 0.18898588 -0.20151572 0.011603644 0.14999984
0.20345406 0.09358329 -0.119929716 -0.045803443 -0.18665718 0.08643829 0.3001869 0.15724176
0.06179846 -0.17309019 -0.3439929 -0.24765614 -0.24004056 -0.06371386 0.1871775 -0.21958688
-0.11096888 -0.11302968 -0.22256516 0.101580344 -0.107253395 0.13706756 -0.18405266 -0.17817488
-0.11892321 0.17381674 0.037998073 -0.09760049 0.11253269 0.2429171 -0.13990949 0.06190326
0.26184455 0.18544121 -0.18406929 0.080110736 0.23412964 -0.20278181 0.17414623 0.22575115
-0.094188966 0.16170727 0.09999353 -0.116697304 0.12456392 0.121182635 -0.27010426 -0.069436416
0.047568686 -0.14755139 -0.113736466 -0.03579656 0.16752559 -0.21855718 -0.047312763 -0.030263571
0.10483625 0.09048566 -0.13468106 0.15095718 -0.066062324 -0.27270275 0.044962127 0.24339485
0.12498663 -0.20397322 0.1627297 -0.16242303 0.009311399 0.11327896 -0.21877551 -0.02507106
0.0056371936 -0.050848782 -0.13528456 0.2212552 0.08883912 0.10950409 0.13531262 0.096194156
-0.27014065 -0.10652705 -0.17794861 0.16343358 0.1861725 0.15375474 -0.21232635 0.17686988
-0.34710371 -0.24716885 0.07342728 -0.17826368 0.22504535 -0.03705646 0.06281073 0.25615057
-0.35508567 0.027877547 0.11175045 -0.08074533 0.097807854 0.11133153 -0.32172585 0.08474004
0.26965818 -0.3577646 -0.17711161 -0.150395 0.11247491 0.061204474 0.10709008 0.25682846
-0.027012618 -0.030224757 -0.18222922 -0.0700959 0.23001032 0.10264276 -0.020387365 0.21753304
-0.15522185 0.15521605 -0.13462466 -0.0055784974 -0.32454196 -0.1263449 0.06372762 0.13179994
-0.029109756 0.22729315 -0.31035402 0.0043914136 0.21259475 0.16007331 -0.010099797 -0.1294257
-0.21219413 0.10418087 -0.083880305 -0.05080302 0.10191106 0.013200194 -0.14011009 0.3109549
-0.14103973 -0.015086653 -0.1519593 0.24881642 0.15663749 -0.30035478 -0.060123205 0.011333469

linear2.weight f4 [3, 256]
00000000: 1b1b cebd bbda d13c f776 1ebe 9c6c 49be
00000010: 7fff e5bd 41bd 41bc d92e fbbd d1d1 c13c
00000020: 8a55 d6bd d19a 863d 3920 503d de65 6cbe
00000030: 7bd0 e03d 3db5 b63d 998a c73b fcfd 16be
00000040: 7eda 9e3c bc0a 5b3d 1a8f 643d 93df eb3d
00000050: 4204 14bd a8b8 943d 9404 44be 4bc5 233d
00000060: b933 663d ae85 813c 70f5 54be e54d 4dbd
00000070: 15fb 7d3d 10c7 d9bc 3de3 c6bd 7fcf 5c3e
00000080: 73b4 10bd 80a0 6c3e 30f6 e2bd 70f7 7c3d
00000090: ffe3 45bc 7ebf 1f3d d7f4 0abe 1d72 883e
000000a0: d27f 98bd 6761 393d 8eda 17be 83cc 8cbd
000000b0: a32b a6bd 228d 83bc 9afd 18be 389b 13be
000000c0: efaf 9dbb 6967 82bd dc15 72bd 2bfe cabb
000000d0: 27c1 3c3d 785f d03b e28c f8bd 7c9e 6b3e
000000e0: a526 a43d 8d73 3b3e f812 24bc 9bec a3be
000000f0: ba45 27be a486 30be b753 073c 2564 323d
00000100: c550 833e d59e 1fbe 16aa 04be 94d3 24be
00000110: 4277 813d a80b 90bc 2a9b 3ebd 3649 bcba
00000120: 20de 2dbe 00e6 af3d 5b9e 2ebe e50d 95bd
00000130: b051 1d3e de0b de3d 93f2 56be f0f3 b6bc
00000140: cd4f 263e 5de9 5bbe 2817 923d 6fbc a13d
00000150: bfcd 0abd 73d3 1dbe 0cf9 e6bd aa9e 233e
00000160: e288 f1bd c5fb 013e 1384 32be 07da a43d
00000170: afcc 81be bb83 e0bd 6319 3a3c 792b 883c
00000180: 9af5 8fbd 5618 d0bd f73b 1abd 7665 fe3d
00000190: d016 2dbe 09ce c73d 0217 08be 81b9 1cbe
000001a0: 0902 e7bd 88c5 23be 5285 0abd d937 e6bc
000001b0: 1168 80bd ed6a 153e aac0 a63d d9ec 1ebd
000001c0: 1284 c03d 9885 913a 9b9a 7abc 749d 7f3b
000001d0: 8224 a8bc c3b1 e7bc f7ac 4c3d afdc 6cbd
000001e0: 5978 283d 9639 a5bd 40a8 6dbd 854a 09be
000001f0: ebf6 bcbd 08ff 243e 6ba5 99bd 74bd debd
00000200: 9aff 443d 045e 3cbe 74cc 003e d356 20bc
00000210: 3cd2 6dbd 1609 25bc 7215 45be b6b2 9ebd
00000220: 0b30 963d 9495 43bd f711 2cbe 96c4 423d
00000230: be00 863d 3035 3e3d 406e 503d 0795 0e3d
00000240: a135 13bd 5a2d 2cbd d500 52be 6fdb 21bd
00000250: 99fe 93bd 335d 09be 4c6e a53c 7b2b 49be
00000260: a380 2bbe fb5a ae3c 209e 62bd 4500 6dbd
00000270: 1e72 203c 8c59 0bbe 0b8c e8ba 1d8c 813a
00000280: 5b3c 453d f103 463e 2f96 07be 5a05 62bc
00000290: 9147 9a3d 88c0 d03c 9845 1cbe 0392 65be
000002a0: e630 5abe 784c 07be 584d e03b 7cef 61bd
000002b0: 13ee e3bd 1245 f8bd 274d debd f20d 8abd
000002c0: 8fd4 45bc db85 3bbd 5c56 40be acca 0abe
000002d0: 83d0 c7bd 77c9 cd3d 964a 1b3e fa4c d3bd
000002e0: 79a3 c83b 8bbb 333e c776 923d 6cce 34be
000002f0: 52ff afbd 03ba 873d a5fd 6cbc 83f7 07be
00000300: cb09 8e3c a503 f9bd 172d 23be 9071 49bd
00000310: 163c 31bd ec1b 983d b375 96bd 443e 483e
00000320: 2a42 8bbb 9b77 f13c 3ea9 aabb 08d7 943e
00000330: e215 5dbd 5f2a 03be 11e3 c7bd 9afe 4abe
00000340: 24b0 cebd cf40 18bd d860 22bc 8d11 62be
00000350: 69bf 003e 5f73 c63b 3ea0 4a3b bcc0 d13d
00000360: 0467 d3bd 7251 04be 0051 f63b 45c1 f1bd
00000370: 7d53 b33d 0947 e83d 8c4c 01bd 39b6 5a3c
00000380: d29a 43be d130 153e 1b64 07bd 3e9b 073b
00000390: fbcf 18bc f802 a4bd 6c1c 69be 2326 b6bd
000003a0: 73de c6bd 641a 973b ad95 013c c443 073e
000003b0: 3d48 d3bd 78bc bfbd 6054 f43d f26f 49be
000003c0: 477a 93bc 0dcb e0bb 2f2a 143e 920f 80be
000003d0: def5 2b3d 3f99 da3d 8984 d63d f98f 3dbd
000003e0: 25a2 c43d f5df 483d eea4 eb3d 66c8 28bd
000003f0: 0888 233e 5536 373d 343a 49be 2a19 93bc
-0.10063764 0.025616994 -0.15475069 -0.19670337 -0.11230373 -0.011824907 -0.12264795 0.023659619
-0.10465534 0.06572498 0.05081198 -0.23085734 0.109772645 0.08921287 0.00608952 -0.14745325
0.019391295 0.053477034 0.055800535 0.11517253 -0.036136873 0.07261783 -0.19142371 0.039983075
0.05620167 0.015810814 -0.20796752 -0.050123114 0.06200703 -0.026584178 -0.09711311 0.21563528
-0.03532834 0.23108101 -0.11082113 0.061759412 -0.012078284 0.03900098 -0.13569961 0.26649562
-0.07446255 0.045258906 -0.14829466 -0.06874945 -0.08113792 -0.016058508 -0.14940491 -0.1441468
-0.0048122327 -0.0636738 -0.059102878 -0.00619485 0.046082642 0.006359037 -0.12136246 0.23009676
0.08015183 0.18305798 -0.010014288 -0.32016453 -0.16335192 -0.17238861 0.008259705 0.043552537
0.2564756 -0.15587933 -0.12955508 -0.16096336 0.06321575 -0.017583683 -0.046534695 -0.001436508
-0.16979265 0.08588791 -0.17052595 -0.07278041 0.15363193 0.10842107 -0.20990972 -0.022333115
0.16241379 -0.2147574 0.07133323 0.07897269 -0.03388762 -0.15412693 -0.11277971 0.15978494
-0.117936864 0.12693699 -0.17433195 0.08049398 -0.25351474 -0.109626256 0.011358592 0.016622292
-0.07029267 -0.10160892 -0.037654843 0.12421696 -0.16903234 0.09756095 -0.13290027 -0.15305139
-0.11279685 -0.15993321 -0.03381855 -0.028102802 -0.06269849 0.1459157 0.081422165 -0.038800094
0.094001904 0.0011102436 -0.01529565 0.0039003761 -0.02052522 -0.028283006 0.04996964 -0.057827648
0.041130397 -0.08067624 -0.058021784 -0.13407333 -0.09226783 0.16112912 -0.07502254 -0.10875979
0.048095323 -0.18395239 0.12577993 -0.0097863255 -0.058061823 -0.010072967 -0.19246462 -0.0774893
0.07333382 -0.04775007 -0.16803728 0.04755076 0.0654311 0.046437442 0.050886393 0.034810092
-0.035939816 -0.042035438 -0.2050813 -0.03951591 -0.07226295 -0.13414459 0.020194195 -0.19645493
-0.1674829 0.021283617 -0.05532658 -0.057861585 0.009792833 -0.13608378 -0.0017741931 0.0009883676
0.048153263 0.19337441 -0.13240884 -0.013795221 0.075331815 0.025482431 -0.15260923 -0.2241898
-0.21307716 -0.13212764 0.0068451576 -0.05516003 -0.111293934 -0.12122549 -0.108545594 -0.06740941
-0.012074604 -0.04578195 -0.18782943 -0.13553876 -0.09756567 0.10048192 0.15165171 -0.103174165
0.006123003 0.1755201 0.07151561 -0.17656869 -0.0859362 0.06627276 -0.01446477 -0.13278012
0.017338654 -0.12158898 -0.15935169 -0.049180567 -0.043270193 0.07427201 -0.07346668 0.19555002
-0.0042498307 0.029475978 -0.0052081635 0.29070306 -0.053975947 -0.12809132 -0.09760106 -0.19823685
-0.1009219 -0.03717118 -0.009910785 -0.22077008 0.12573017 0.006056234 0.0030918266 0.10241839
-0.10322383 -0.12921694 0.00751698 -0.11804441 0.087561585 0.11341674 -0.03156714 0.013349109
-0.19102028 0.14569403 -0.033054452 0.0020691897 -0.00932693 -0.08008379 -0.22764748 -0.08893993
-0.097103976 0.0046113003 0.007909221 0.13209444 -0.10316513 -0.093621194 0.11930156 -0.1967161
-0.018002642 -0.006860143 0.14469217 -0.2501188 0.041982524 0.106737606 0.10474498 -0.04627988
0.09601239 0.049041707 0.11506067 -0.04120674 0.1596986 0.04472955 -0.19651109 -0.017956335

linear2.bias f4 [3]
00000000: 3290 c0bc 78d7 8ebd 372e a6bd
-0.023506258 -0.06974691 -0.081142835
